…
<div class=3D"output_subarea output_stream output_stdout output_text">
<pre>______________________________________________________________________=
______________________________
Layer (type)                     Output Shape          Param #     Connecte=
d to                    =20
=3D=3D=3D=3D=3D=3D=3D=3D=3D=3D=3D=3D=3D=3D=3D=3D=3D=3D=3D=3D=3D=3D=3D=3D=3D=
=3D=3D=3D=3D=3D=3D=3D=3D=3D=3D=3D=3D=3D=3D=3D=3D=3D=3D=3D=3D=3D=3D=3D=3D=3D=
=3D=3D=3D=3D=3D=3D=3D=3D=3D=3D=3D=3D=3D=3D=3D=3D=3D=3D=3D=3D=3D=3D=3D=3D=3D=
=3D=3D=3D=3D=3D=3D=3D=3D=3D=3D=3D=3D=3D=3D=3D=3D=3D=3D=3D=3D=3D=3D=3D=3D=3D
input_1 (InputLayer)             (None, 64, 64, 3)     0                   =
                        =20
___________________________________________________________________________=
_________________________
zero_padding2d_1 (ZeroPadding2D) (None, 70, 70, 3)     0           input_1[=
0][0]                   =20
___________________________________________________________________________=
_________________________
conv1 (Conv2D)                   (None, 32, 32, 64)    9472        zero_pad=
ding2d_1[0][0]          =20
___________________________________________________________________________=
_________________________
bn_conv1 (BatchNormalization)    (None, 32, 32, 64)    256         conv1[0]=
[0]                     =20
___________________________________________________________________________=
_________________________
activation_4 (Activation)        (None, 32, 32, 64)    0           bn_conv1=
[0][0]                  =20
___________________________________________________________________________=
_________________________
max_pooling2d_1 (MaxPooling2D)   (None, 15, 15, 64)    0           activati=
on_4[0][0]              =20
___________________________________________________________________________=
_________________________
res2a_branch2a (Conv2D)          (None, 15, 15, 64)    4160        max_pool=
ing2d_1[0][0]           =20
___________________________________________________________________________=
_________________________
bn2a_branch2a (BatchNormalizatio (None, 15, 15, 64)    256         res2a_br=
anch2a[0][0]            =20
___________________________________________________________________________=
_________________________
activation_5 (Activation)        (None, 15, 15, 64)    0           bn2a_bra=
nch2a[0][0]             =20
___________________________________________________________________________=
_________________________
res2a_branch2b (Conv2D)          (None, 15, 15, 64)    36928       activati=
on_5[0][0]              =20
___________________________________________________________________________=
_________________________
bn2a_branch2b (BatchNormalizatio (None, 15, 15, 64)    256         res2a_br=
anch2b[0][0]            =20
___________________________________________________________________________=
_________________________
activation_6 (Activation)        (None, 15, 15, 64)    0           bn2a_bra=
nch2b[0][0]             =20
___________________________________________________________________________=
_________________________
res2a_branch2c (Conv2D)          (None, 15, 15, 256)   16640       activati=
on_6[0][0]              =20
___________________________________________________________________________=
_________________________
res2a_branch1 (Conv2D)           (None, 15, 15, 256)   16640       max_pool=
ing2d_1[0][0]           =20
___________________________________________________________________________=
_________________________
bn2a_branch2c (BatchNormalizatio (None, 15, 15, 256)   1024        res2a_br=
anch2c[0][0]            =20
___________________________________________________________________________=
_________________________
bn2a_branch1 (BatchNormalization (None, 15, 15, 256)   1024        res2a_br=
anch1[0][0]             =20
___________________________________________________________________________=
_________________________
add_2 (Add)                      (None, 15, 15, 256)   0           bn2a_bra=
nch2c[0][0]             =20
                                                                   bn2a_bra=
nch1[0][0]              =20
___________________________________________________________________________=
_________________________
activation_7 (Activation)        (None, 15, 15, 256)   0           add_2[0]=
[0]                     =20
___________________________________________________________________________=
_________________________
res2b_branch2a (Conv2D)          (None, 15, 15, 64)    16448       activati=
on_7[0][0]              =20
___________________________________________________________________________=
_________________________
bn2b_branch2a (BatchNormalizatio (None, 15, 15, 64)    256         res2b_br=
anch2a[0][0]            =20
___________________________________________________________________________=
_________________________
activation_8 (Activation)        (None, 15, 15, 64)    0           bn2b_bra=
nch2a[0][0]             =20
___________________________________________________________________________=
_________________________
res2b_branch2b (Conv2D)          (None, 15, 15, 64)    36928       activati=
on_8[0][0]              =20
___________________________________________________________________________=
_________________________
bn2b_branch2b (BatchNormalizatio (None, 15, 15, 64)    256         res2b_br=
anch2b[0][0]            =20
___________________________________________________________________________=
_________________________
activation_9 (Activation)        (None, 15, 15, 64)    0           bn2b_bra=
nch2b[0][0]             =20
___________________________________________________________________________=
_________________________
res2b_branch2c (Conv2D)          (None, 15, 15, 256)   16640       activati=
on_9[0][0]              =20
___________________________________________________________________________=
_________________________
bn2b_branch2c (BatchNormalizatio (None, 15, 15, 256)   1024        res2b_br=
anch2c[0][0]            =20
___________________________________________________________________________=
_________________________
add_3 (Add)                      (None, 15, 15, 256)   0           bn2b_bra=
nch2c[0][0]             =20
                                                                   activati=
on_7[0][0]              =20
___________________________________________________________________________=
_________________________
activation_10 (Activation)       (None, 15, 15, 256)   0           add_3[0]=
[0]                     =20
___________________________________________________________________________=
_________________________
res2c_branch2a (Conv2D)          (None, 15, 15, 64)    16448       activati=
on_10[0][0]             =20
___________________________________________________________________________=
_________________________
bn2c_branch2a (BatchNormalizatio (None, 15, 15, 64)    256         res2c_br=
anch2a[0][0]            =20
___________________________________________________________________________=
_________________________
activation_11 (Activation)       (None, 15, 15, 64)    0           bn2c_bra=
nch2a[0][0]             =20
___________________________________________________________________________=
_________________________
res2c_branch2b (Conv2D)          (None, 15, 15, 64)    36928       activati=
on_11[0][0]             =20
___________________________________________________________________________=
_________________________
bn2c_branch2b (BatchNormalizatio (None, 15, 15, 64)    256         res2c_br=
anch2b[0][0]            =20
___________________________________________________________________________=
_________________________
activation_12 (Activation)       (None, 15, 15, 64)    0           bn2c_bra=
nch2b[0][0]             =20
___________________________________________________________________________=
_________________________
res2c_branch2c (Conv2D)          (None, 15, 15, 256)   16640       activati=
on_12[0][0]             =20
___________________________________________________________________________=
_________________________
bn2c_branch2c (BatchNormalizatio (None, 15, 15, 256)   1024        res2c_br=
anch2c[0][0]            =20
___________________________________________________________________________=
_________________________
add_4 (Add)                      (None, 15, 15, 256)   0           bn2c_bra=
nch2c[0][0]             =20
                                                                   activati=
on_10[0][0]             =20
___________________________________________________________________________=
_________________________
activation_13 (Activation)       (None, 15, 15, 256)   0           add_4[0]=
[0]                     =20
___________________________________________________________________________=
_________________________
res3a_branch2a (Conv2D)          (None, 8, 8, 128)     32896       activati=
on_13[0][0]             =20
___________________________________________________________________________=
_________________________
bn3a_branch2a (BatchNormalizatio (None, 8, 8, 128)     512         res3a_br=
anch2a[0][0]            =20
___________________________________________________________________________=
_________________________
activation_14 (Activation)       (None, 8, 8, 128)     0           bn3a_bra=
nch2a[0][0]             =20
___________________________________________________________________________=
_________________________
res3a_branch2b (Conv2D)          (None, 8, 8, 128)     147584      activati=
on_14[0][0]             =20
___________________________________________________________________________=
_________________________
bn3a_branch2b (BatchNormalizatio (None, 8, 8, 128)     512         res3a_br=
anch2b[0][0]            =20
___________________________________________________________________________=
_________________________
activation_15 (Activation)       (None, 8, 8, 128)     0           bn3a_bra=
nch2b[0][0]             =20
___________________________________________________________________________=
_________________________
res3a_branch2c (Conv2D)          (None, 8, 8, 512)     66048       activati=
on_15[0][0]             =20
___________________________________________________________________________=
_________________________
res3a_branch1 (Conv2D)           (None, 8, 8, 512)     131584      activati=
on_13[0][0]             =20
___________________________________________________________________________=
_________________________
bn3a_branch2c (BatchNormalizatio (None, 8, 8, 512)     2048        res3a_br=
anch2c[0][0]            =20
___________________________________________________________________________=
_________________________
bn3a_branch1 (BatchNormalization (None, 8, 8, 512)     2048        res3a_br=
anch1[0][0]             =20
___________________________________________________________________________=
_________________________
add_5 (Add)                      (None, 8, 8, 512)     0           bn3a_bra=
nch2c[0][0]             =20
                                                                   bn3a_bra=
nch1[0][0]              =20
___________________________________________________________________________=
_________________________
activation_16 (Activation)       (None, 8, 8, 512)     0           add_5[0]=
[0]                     =20
___________________________________________________________________________=
_________________________
res3b_branch2a (Conv2D)          (None, 8, 8, 128)     65664       activati=
on_16[0][0]             =20
___________________________________________________________________________=
_________________________
bn3b_branch2a (BatchNormalizatio (None, 8, 8, 128)     512         res3b_br=
anch2a[0][0]            =20
___________________________________________________________________________=
_________________________
activation_17 (Activation)       (None, 8, 8, 128)     0           bn3b_bra=
nch2a[0][0]             =20
___________________________________________________________________________=
_________________________
res3b_branch2b (Conv2D)          (None, 8, 8, 128)     147584      activati=
on_17[0][0]             =20
___________________________________________________________________________=
_________________________
bn3b_branch2b (BatchNormalizatio (None, 8, 8, 128)     512         res3b_br=
anch2b[0][0]            =20
___________________________________________________________________________=
_________________________
activation_18 (Activation)       (None, 8, 8, 128)     0           bn3b_bra=
nch2b[0][0]             =20
___________________________________________________________________________=
_________________________
res3b_branch2c (Conv2D)          (None, 8, 8, 512)     66048       activati=
on_18[0][0]             =20
___________________________________________________________________________=
_________________________
bn3b_branch2c (BatchNormalizatio (None, 8, 8, 512)     2048        res3b_br=
anch2c[0][0]            =20
___________________________________________________________________________=
_________________________
add_6 (Add)                      (None, 8, 8, 512)     0           bn3b_bra=
nch2c[0][0]             =20
                                                                   activati=
on_16[0][0]             =20
___________________________________________________________________________=
_________________________
activation_19 (Activation)       (None, 8, 8, 512)     0           add_6[0]=
[0]                     =20
___________________________________________________________________________=
_________________________
res3c_branch2a (Conv2D)          (None, 8, 8, 128)     65664       activati=
on_19[0][0]             =20
___________________________________________________________________________=
_________________________
bn3c_branch2a (BatchNormalizatio (None, 8, 8, 128)     512         res3c_br=
anch2a[0][0]            =20
___________________________________________________________________________=
_________________________
activation_20 (Activation)       (None, 8, 8, 128)     0           bn3c_bra=
nch2a[0][0]             =20
___________________________________________________________________________=
_________________________
res3c_branch2b (Conv2D)          (None, 8, 8, 128)     147584      activati=
on_20[0][0]             =20
___________________________________________________________________________=
_________________________
bn3c_branch2b (BatchNormalizatio (None, 8, 8, 128)     512         res3c_br=
anch2b[0][0]            =20
___________________________________________________________________________=
_________________________
activation_21 (Activation)       (None, 8, 8, 128)     0           bn3c_bra=
nch2b[0][0]             =20
___________________________________________________________________________=
_________________________
res3c_branch2c (Conv2D)          (None, 8, 8, 512)     66048       activati=
on_21[0][0]             =20
___________________________________________________________________________=
_________________________
bn3c_branch2c (BatchNormalizatio (None, 8, 8, 512)     2048        res3c_br=
anch2c[0][0]            =20
___________________________________________________________________________=
_________________________
add_7 (Add)                      (None, 8, 8, 512)     0           bn3c_bra=
nch2c[0][0]             =20
                                                                   activati=
on_19[0][0]             =20
___________________________________________________________________________=
_________________________
activation_22 (Activation)       (None, 8, 8, 512)     0           add_7[0]=
[0]                     =20
___________________________________________________________________________=
_________________________
res3d_branch2a (Conv2D)          (None, 8, 8, 128)     65664       activati=
on_22[0][0]             =20
___________________________________________________________________________=
_________________________
bn3d_branch2a (BatchNormalizatio (None, 8, 8, 128)     512         res3d_br=
anch2a[0][0]            =20
___________________________________________________________________________=
_________________________
activation_23 (Activation)       (None, 8, 8, 128)     0           bn3d_bra=
nch2a[0][0]             =20
___________________________________________________________________________=
_________________________
res3d_branch2b (Conv2D)          (None, 8, 8, 128)     147584      activati=
on_23[0][0]             =20
___________________________________________________________________________=
_________________________
bn3d_branch2b (BatchNormalizatio (None, 8, 8, 128)     512         res3d_br=
anch2b[0][0]            =20
___________________________________________________________________________=
_________________________
activation_24 (Activation)       (None, 8, 8, 128)     0           bn3d_bra=
nch2b[0][0]             =20
___________________________________________________________________________=
_________________________
res3d_branch2c (Conv2D)          (None, 8, 8, 512)     66048       activati=
on_24[0][0]             =20
___________________________________________________________________________=
_________________________
bn3d_branch2c (BatchNormalizatio (None, 8, 8, 512)     2048        res3d_br=
anch2c[0][0]            =20
___________________________________________________________________________=
_________________________
add_8 (Add)                      (None, 8, 8, 512)     0           bn3d_bra=
nch2c[0][0]             =20
                                                                   activati=
on_22[0][0]             =20
___________________________________________________________________________=
_________________________
activation_25 (Activation)       (None, 8, 8, 512)     0           add_8[0]=
[0]                     =20
___________________________________________________________________________=
_________________________
res4a_branch2a (Conv2D)          (None, 4, 4, 256)     131328      activati=
on_25[0][0]             =20
___________________________________________________________________________=
_________________________
bn4a_branch2a (BatchNormalizatio (None, 4, 4, 256)     1024        res4a_br=
anch2a[0][0]            =20
___________________________________________________________________________=
_________________________
activation_26 (Activation)       (None, 4, 4, 256)     0           bn4a_bra=
nch2a[0][0]             =20
___________________________________________________________________________=
_________________________
res4a_branch2b (Conv2D)          (None, 4, 4, 256)     590080      activati=
on_26[0][0]             =20
___________________________________________________________________________=
_________________________
bn4a_branch2b (BatchNormalizatio (None, 4, 4, 256)     1024        res4a_br=
anch2b[0][0]            =20
___________________________________________________________________________=
_________________________
activation_27 (Activation)       (None, 4, 4, 256)     0           bn4a_bra=
nch2b[0][0]             =20
___________________________________________________________________________=
_________________________
res4a_branch2c (Conv2D)          (None, 4, 4, 1024)    263168      activati=
on_27[0][0]             =20
___________________________________________________________________________=
_________________________
res4a_branch1 (Conv2D)           (None, 4, 4, 1024)    525312      activati=
on_25[0][0]             =20
___________________________________________________________________________=
_________________________
bn4a_branch2c (BatchNormalizatio (None, 4, 4, 1024)    4096        res4a_br=
anch2c[0][0]            =20
___________________________________________________________________________=
_________________________
bn4a_branch1 (BatchNormalization (None, 4, 4, 1024)    4096        res4a_br=
anch1[0][0]             =20
___________________________________________________________________________=
_________________________
add_9 (Add)                      (None, 4, 4, 1024)    0           bn4a_bra=
nch2c[0][0]             =20
                                                                   bn4a_bra=
nch1[0][0]              =20
___________________________________________________________________________=
_________________________
activation_28 (Activation)       (None, 4, 4, 1024)    0           add_9[0]=
[0]                     =20
___________________________________________________________________________=
_________________________
res4b_branch2a (Conv2D)          (None, 4, 4, 256)     262400      activati=
on_28[0][0]             =20
___________________________________________________________________________=
_________________________
bn4b_branch2a (BatchNormalizatio (None, 4, 4, 256)     1024        res4b_br=
anch2a[0][0]            =20
___________________________________________________________________________=
_________________________
activation_29 (Activation)       (None, 4, 4, 256)     0           bn4b_bra=
nch2a[0][0]             =20
___________________________________________________________________________=
_________________________
res4b_branch2b (Conv2D)          (None, 4, 4, 256)     590080      activati=
on_29[0][0]             =20
___________________________________________________________________________=
_________________________
bn4b_branch2b (BatchNormalizatio (None, 4, 4, 256)     1024        res4b_br=
anch2b[0][0]            =20
___________________________________________________________________________=
_________________________
activation_30 (Activation)       (None, 4, 4, 256)     0           bn4b_bra=
nch2b[0][0]             =20
___________________________________________________________________________=
_________________________
res4b_branch2c (Conv2D)          (None, 4, 4, 1024)    263168      activati=
on_30[0][0]             =20
___________________________________________________________________________=
_________________________
bn4b_branch2c (BatchNormalizatio (None, 4, 4, 1024)    4096        res4b_br=
anch2c[0][0]            =20
___________________________________________________________________________=
_________________________
add_10 (Add)                     (None, 4, 4, 1024)    0           bn4b_bra=
nch2c[0][0]             =20
                                                                   activati=
on_28[0][0]             =20
___________________________________________________________________________=
_________________________
activation_31 (Activation)       (None, 4, 4, 1024)    0           add_10[0=
][0]                    =20
___________________________________________________________________________=
_________________________
res4c_branch2a (Conv2D)          (None, 4, 4, 256)     262400      activati=
on_31[0][0]             =20
___________________________________________________________________________=
_________________________
bn4c_branch2a (BatchNormalizatio (None, 4, 4, 256)     1024        res4c_br=
anch2a[0][0]            =20
___________________________________________________________________________=
_________________________
activation_32 (Activation)       (None, 4, 4, 256)     0           bn4c_bra=
nch2a[0][0]             =20
___________________________________________________________________________=
_________________________
res4c_branch2b (Conv2D)          (None, 4, 4, 256)     590080      activati=
on_32[0][0]             =20
___________________________________________________________________________=
_________________________
bn4c_branch2b (BatchNormalizatio (None, 4, 4, 256)     1024        res4c_br=
anch2b[0][0]            =20
___________________________________________________________________________=
_________________________
activation_33 (Activation)       (None, 4, 4, 256)     0           bn4c_bra=
nch2b[0][0]             =20
___________________________________________________________________________=
_________________________
res4c_branch2c (Conv2D)          (None, 4, 4, 1024)    263168      activati=
on_33[0][0]             =20
___________________________________________________________________________=
_________________________
bn4c_branch2c (BatchNormalizatio (None, 4, 4, 1024)    4096        res4c_br=
anch2c[0][0]            =20
___________________________________________________________________________=
_________________________
add_11 (Add)                     (None, 4, 4, 1024)    0           bn4c_bra=
nch2c[0][0]             =20
                                                                   activati=
on_31[0][0]             =20
___________________________________________________________________________=
_________________________
activation_34 (Activation)       (None, 4, 4, 1024)    0           add_11[0=
][0]                    =20
___________________________________________________________________________=
_________________________
res4d_branch2a (Conv2D)          (None, 4, 4, 256)     262400      activati=
on_34[0][0]             =20
___________________________________________________________________________=
_________________________
bn4d_branch2a (BatchNormalizatio (None, 4, 4, 256)     1024        res4d_br=
anch2a[0][0]            =20
___________________________________________________________________________=
_________________________
activation_35 (Activation)       (None, 4, 4, 256)     0           bn4d_bra=
nch2a[0][0]             =20
___________________________________________________________________________=
_________________________
res4d_branch2b (Conv2D)          (None, 4, 4, 256)     590080      activati=
on_35[0][0]             =20
___________________________________________________________________________=
_________________________
bn4d_branch2b (BatchNormalizatio (None, 4, 4, 256)     1024        res4d_br=
anch2b[0][0]            =20
___________________________________________________________________________=
_________________________
activation_36 (Activation)       (None, 4, 4, 256)     0           bn4d_bra=
nch2b[0][0]             =20
___________________________________________________________________________=
_________________________
res4d_branch2c (Conv2D)          (None, 4, 4, 1024)    263168      activati=
on_36[0][0]             =20
___________________________________________________________________________=
_________________________
bn4d_branch2c (BatchNormalizatio (None, 4, 4, 1024)    4096        res4d_br=
anch2c[0][0]            =20
___________________________________________________________________________=
_________________________
add_12 (Add)                     (None, 4, 4, 1024)    0           bn4d_bra=
nch2c[0][0]             =20
                                                                   activati=
on_34[0][0]             =20
___________________________________________________________________________=
_________________________
activation_37 (Activation)       (None, 4, 4, 1024)    0           add_12[0=
][0]                    =20
___________________________________________________________________________=
_________________________
res4e_branch2a (Conv2D)          (None, 4, 4, 256)     262400      activati=
on_37[0][0]             =20
___________________________________________________________________________=
_________________________
bn4e_branch2a (BatchNormalizatio (None, 4, 4, 256)     1024        res4e_br=
anch2a[0][0]            =20
___________________________________________________________________________=
_________________________
activation_38 (Activation)       (None, 4, 4, 256)     0           bn4e_bra=
nch2a[0][0]             =20
___________________________________________________________________________=
_________________________
res4e_branch2b (Conv2D)          (None, 4, 4, 256)     590080      activati=
on_38[0][0]             =20
___________________________________________________________________________=
_________________________
bn4e_branch2b (BatchNormalizatio (None, 4, 4, 256)     1024        res4e_br=
anch2b[0][0]            =20
___________________________________________________________________________=
_________________________
activation_39 (Activation)       (None, 4, 4, 256)     0           bn4e_bra=
nch2b[0][0]             =20
___________________________________________________________________________=
_________________________
res4e_branch2c (Conv2D)          (None, 4, 4, 1024)    263168      activati=
on_39[0][0]             =20
___________________________________________________________________________=
_________________________
bn4e_branch2c (BatchNormalizatio (None, 4, 4, 1024)    4096        res4e_br=
anch2c[0][0]            =20
___________________________________________________________________________=
_________________________
add_13 (Add)                     (None, 4, 4, 1024)    0           bn4e_bra=
nch2c[0][0]             =20
                                                                   activati=
on_37[0][0]             =20
___________________________________________________________________________=
_________________________
activation_40 (Activation)       (None, 4, 4, 1024)    0           add_13[0=
][0]                    =20
___________________________________________________________________________=
_________________________
res4f_branch2a (Conv2D)          (None, 4, 4, 256)     262400      activati=
on_40[0][0]             =20
___________________________________________________________________________=
_________________________
bn4f_branch2a (BatchNormalizatio (None, 4, 4, 256)     1024        res4f_br=
anch2a[0][0]            =20
___________________________________________________________________________=
_________________________
activation_41 (Activation)       (None, 4, 4, 256)     0           bn4f_bra=
nch2a[0][0]             =20
___________________________________________________________________________=
_________________________
res4f_branch2b (Conv2D)          (None, 4, 4, 256)     590080      activati=
on_41[0][0]             =20
___________________________________________________________________________=
_________________________
bn4f_branch2b (BatchNormalizatio (None, 4, 4, 256)     1024        res4f_br=
anch2b[0][0]            =20
___________________________________________________________________________=
_________________________
activation_42 (Activation)       (None, 4, 4, 256)     0           bn4f_bra=
nch2b[0][0]             =20
___________________________________________________________________________=
_________________________
res4f_branch2c (Conv2D)          (None, 4, 4, 1024)    263168      activati=
on_42[0][0]             =20
___________________________________________________________________________=
_________________________
bn4f_branch2c (BatchNormalizatio (None, 4, 4, 1024)    4096        res4f_br=
anch2c[0][0]            =20
___________________________________________________________________________=
_________________________
add_14 (Add)                     (None, 4, 4, 1024)    0           bn4f_bra=
nch2c[0][0]             =20
                                                                   activati=
on_40[0][0]             =20
___________________________________________________________________________=
_________________________
activation_43 (Activation)       (None, 4, 4, 1024)    0           add_14[0=
][0]                    =20
___________________________________________________________________________=
_________________________
res5a_branch2a (Conv2D)          (None, 2, 2, 512)     524800      activati=
on_43[0][0]             =20
___________________________________________________________________________=
_________________________
bn5a_branch2a (BatchNormalizatio (None, 2, 2, 512)     2048        res5a_br=
anch2a[0][0]            =20
___________________________________________________________________________=
_________________________
activation_44 (Activation)       (None, 2, 2, 512)     0           bn5a_bra=
nch2a[0][0]             =20
___________________________________________________________________________=
_________________________
res5a_branch2b (Conv2D)          (None, 2, 2, 512)     2359808     activati=
on_44[0][0]             =20
___________________________________________________________________________=
_________________________
bn5a_branch2b (BatchNormalizatio (None, 2, 2, 512)     2048        res5a_br=
anch2b[0][0]            =20
___________________________________________________________________________=
_________________________
activation_45 (Activation)       (None, 2, 2, 512)     0           bn5a_bra=
nch2b[0][0]             =20
___________________________________________________________________________=
_________________________
res5a_branch2c (Conv2D)          (None, 2, 2, 2048)    1050624     activati=
on_45[0][0]             =20
___________________________________________________________________________=
_________________________
res5a_branch1 (Conv2D)           (None, 2, 2, 2048)    2099200     activati=
on_43[0][0]             =20
___________________________________________________________________________=
_________________________
bn5a_branch2c (BatchNormalizatio (None, 2, 2, 2048)    8192        res5a_br=
anch2c[0][0]            =20
___________________________________________________________________________=
_________________________
bn5a_branch1 (BatchNormalization (None, 2, 2, 2048)    8192        res5a_br=
anch1[0][0]             =20
___________________________________________________________________________=
_________________________
add_15 (Add)                     (None, 2, 2, 2048)    0           bn5a_bra=
nch2c[0][0]             =20
                                                                   bn5a_bra=
nch1[0][0]              =20
___________________________________________________________________________=
_________________________
activation_46 (Activation)       (None, 2, 2, 2048)    0           add_15[0=
][0]                    =20
___________________________________________________________________________=
_________________________
res5b_branch2a (Conv2D)          (None, 2, 2, 512)     1049088     activati=
on_46[0][0]             =20
___________________________________________________________________________=
_________________________
bn5b_branch2a (BatchNormalizatio (None, 2, 2, 512)     2048        res5b_br=
anch2a[0][0]            =20
___________________________________________________________________________=
_________________________
activation_47 (Activation)       (None, 2, 2, 512)     0           bn5b_bra=
nch2a[0][0]             =20
___________________________________________________________________________=
_________________________
res5b_branch2b (Conv2D)          (None, 2, 2, 512)     2359808     activati=
on_47[0][0]             =20
___________________________________________________________________________=
_________________________
bn5b_branch2b (BatchNormalizatio (None, 2, 2, 512)     2048        res5b_br=
anch2b[0][0]            =20
___________________________________________________________________________=
_________________________
activation_48 (Activation)       (None, 2, 2, 512)     0           bn5b_bra=
nch2b[0][0]             =20
___________________________________________________________________________=
_________________________
res5b_branch2c (Conv2D)          (None, 2, 2, 2048)    1050624     activati=
on_48[0][0]             =20
___________________________________________________________________________=
_________________________
bn5b_branch2c (BatchNormalizatio (None, 2, 2, 2048)    8192        res5b_br=
anch2c[0][0]            =20
___________________________________________________________________________=
_________________________
add_16 (Add)                     (None, 2, 2, 2048)    0           bn5b_bra=
nch2c[0][0]             =20
                                                                   activati=
on_46[0][0]             =20
___________________________________________________________________________=
_________________________
activation_49 (Activation)       (None, 2, 2, 2048)    0           add_16[0=
][0]                    =20
___________________________________________________________________________=
_________________________
res5c_branch2a (Conv2D)          (None, 2, 2, 512)     1049088     activati=
on_49[0][0]             =20
___________________________________________________________________________=
_________________________
bn5c_branch2a (BatchNormalizatio (None, 2, 2, 512)     2048        res5c_br=
anch2a[0][0]            =20
___________________________________________________________________________=
_________________________
activation_50 (Activation)       (None, 2, 2, 512)     0           bn5c_bra=
nch2a[0][0]             =20
___________________________________________________________________________=
_________________________
res5c_branch2b (Conv2D)          (None, 2, 2, 512)     2359808     activati=
on_50[0][0]             =20
___________________________________________________________________________=
_________________________
bn5c_branch2b (BatchNormalizatio (None, 2, 2, 512)     2048        res5c_br=
anch2b[0][0]            =20
___________________________________________________________________________=
_________________________
activation_51 (Activation)       (None, 2, 2, 512)     0           bn5c_bra=
nch2b[0][0]             =20
___________________________________________________________________________=
_________________________
res5c_branch2c (Conv2D)          (None, 2, 2, 2048)    1050624     activati=
on_51[0][0]             =20
___________________________________________________________________________=
_________________________
bn5c_branch2c (BatchNormalizatio (None, 2, 2, 2048)    8192        res5c_br=
anch2c[0][0]            =20
___________________________________________________________________________=
_________________________
add_17 (Add)                     (None, 2, 2, 2048)    0           bn5c_bra=
nch2c[0][0]             =20
                                                                   activati=
on_49[0][0]             =20
___________________________________________________________________________=
_________________________
activation_52 (Activation)       (None, 2, 2, 2048)    0           add_17[0=
][0]                    =20
___________________________________________________________________________=
_________________________
avg_pool (AveragePooling2D)      (None, 1, 1, 2048)    0           activati=
on_52[0][0]             =20
___________________________________________________________________________=
_________________________
flatten_1 (Flatten)              (None, 2048)          0           avg_pool=
[0][0]                  =20
___________________________________________________________________________=
_________________________
fc6 (Dense)                      (None, 6)             12294       flatten_=
1[0][0]                 =20
=3D=3D=3D=3D=3D=3D=3D=3D=3D=3D=3D=3D=3D=3D=3D=3D=3D=3D=3D=3D=3D=3D=3D=3D=3D=
=3D=3D=3D=3D=3D=3D=3D=3D=3D=3D=3D=3D=3D=3D=3D=3D=3D=3D=3D=3D=3D=3D=3D=3D=3D=
=3D=3D=3D=3D=3D=3D=3D=3D=3D=3D=3D=3D=3D=3D=3D=3D=3D=3D=3D=3D=3D=3D=3D=3D=3D=
=3D=3D=3D=3D=3D=3D=3D=3D=3D=3D=3D=3D=3D=3D=3D=3D=3D=3D=3D=3D=3D=3D=3D=3D=3D
Total params: 23,600,006
Trainable params: 23,546,886
…
r: transparent; width: 100%; padding: 5px; margin: 0px; outline: none; back=
ground: linear-gradient(to right, transparent -40px, transparent 1px, trans=
parent 1px, transparent 100%); }

div.cell.jupyter-soft-selected { border-left-color: rgb(227, 242, 253); bor=
der-left-width: 1px; padding-left: 5px; border-right-color: rgb(227, 242, 2=
53); border-right-width: 1px; background: rgb(227, 242, 253); }

@media print {
  div.cell.jupyter-soft-selected { border-color: transparent; }
}

div.cell.selected { border-color: rgb(171, 171, 171); border-left-width: 0p=
x; padding-left: 6px; background: linear-gradient(to right, rgb(66, 165, 24=
5) -40px, rgb(66, 165, 245) 5px, transparent 5px, transparent 100%); }

@media print {
  div.cell.selected { border-color: transparent; }
}

div.cell.selected.jupyter-soft-selected { border-left-width: 0px; padding-l=
eft: 6px; background: linear-gradient(to right, rgb(66, 165, 245) -40px, rg=
b(66, 165, 245) 7px, rgb(227, 242, 253) 7px, rgb(227, 242, 253) 100%); }

.edit_mode div.cell.selected { border-color: rgb(102, 187, 106); border-lef=
t-width: 0px; padding-left: 6px; background: linear-gradient(to right, rgb(=
102, 187, 106) -40px, rgb(102, 187, 106) 5px, transparent 5px, transparent =
100%); }

@media print {
  .edit_mode div.cell.selected { border-color: transparent; }
}

.prompt { min-width: 14ex; padding: 0.4em; margin: 0px; font-family: monosp=
ace; text-align: right; line-height: 1.21429em; user-select: none; cursor: =
default; }

@media (max-width: 540px) {
  .prompt { text-align: left; }
}

div.inner_cell { -webkit-box-orient: vertical; -webkit-box-align: stretch; =
…
